{"data": {"samples_train": 364199, "samples_test": 51510, "samples_val": 104576, "samples_overall": 520285, "name": "small_dataset"}, "embedding": {"vocabulary_size": 97, "embedding_dimension": 50}, "hiperparameter": {"architecture": "cnn", "model_summary": "_________________________________________________________________\nLayer (type)                 Output Shape              Param #   \n=================================================================\nembedding_1 (Embedding)      (None, 200, 50)           4900      \n_________________________________________________________________\nconv1d_1 (Conv1D)            (None, 198, 128)          19328     \n_________________________________________________________________\nmax_pooling1d_1 (MaxPooling1 (None, 66, 128)           0         \n_________________________________________________________________\nconv1d_2 (Conv1D)            (None, 66, 256)           229632    \n_________________________________________________________________\nconv1d_3 (Conv1D)            (None, 66, 96)            122976    \n_________________________________________________________________\nconv1d_4 (Conv1D)            (None, 66, 128)           36992     \n_________________________________________________________________\nmax_pooling1d_2 (MaxPooling1 (None, 22, 128)           0         \n_________________________________________________________________\nconv1d_5 (Conv1D)            (None, 22, 196)           125636    \n_________________________________________________________________\nconv1d_6 (Conv1D)            (None, 22, 128)           75392     \n_________________________________________________________________\nconv1d_7 (Conv1D)            (None, 22, 96)            61536     \n_________________________________________________________________\nconv1d_8 (Conv1D)            (None, 22, 128)           36992     \n_________________________________________________________________\nconv1d_9 (Conv1D)            (None, 22, 196)           125636    \n_________________________________________________________________\nconv1d_10 (Conv1D)           (None, 22, 128)           175744    \n_________________________________________________________________\nconv1d_11 (Conv1D)           (None, 22, 96)            36960     \n_________________________________________________________________\nmax_pooling1d_3 (MaxPooling1 (None, 7, 96)             0         \n_________________________________________________________________\nconv1d_12 (Conv1D)           (None, 7, 196)            94276     \n_________________________________________________________________\nconv1d_13 (Conv1D)           (None, 7, 128)            175744    \n_________________________________________________________________\nmax_pooling1d_4 (MaxPooling1 (None, 2, 128)            0         \n_________________________________________________________________\nconv1d_14 (Conv1D)           (None, 2, 196)            125636    \n_________________________________________________________________\nconv1d_15 (Conv1D)           (None, 2, 128)            175744    \n_________________________________________________________________\nconv1d_16 (Conv1D)           (None, 2, 96)             36960     \n_________________________________________________________________\nflatten_1 (Flatten)          (None, 192)               0         \n_________________________________________________________________\ndense_1 (Dense)              (None, 2)                 386       \n=================================================================\nTotal params: 1,660,470\nTrainable params: 1,660,470\nNon-trainable params: 0\n_________________________________________________________________\n", "epoch": 100, "train_batch_size": 7000, "test_batch_size": 7000, "sequence_length": 200}, "test_result": {"test_time": 0.9900789260864258, "report": "              precision  
…
