{"data": {"samples_train": 364199, "samples_test": 51510, "samples_val": 104576, "samples_overall": 520285, "name": "small_dataset"}, "embedding": {"vocabulary_size": 97, "embedding_dimension": 50}, "hiperparameter": {"architecture": "cnn", "model_summary": "_________________________________________________________________\nLayer (type)                 Output Shape              Param #   \n=================================================================\nembedding_1 (Embedding)      (None, 200, 50)           4900      \n_________________________________________________________________\nconv1d_1 (Conv1D)            (None, 198, 128)          19328     \n_________________________________________________________________\nmax_pooling1d_1 (MaxPooling1 (None, 66, 128)           0         \n_________________________________________________________________\ndropout_1 (Dropout)          (None, 66, 128)           0         \n_________________________________________________________________\nconv1d_2 (Conv1D)            (None, 66, 256)           229632    \n_________________________________________________________________\ndropout_2 (Dropout)          (None, 66, 256)           0         \n_________________________________________________________________\nconv1d_3 (Conv1D)            (None, 66, 96)            122976    \n_________________________________________________________________\ndropout_3 (Dropout)          (None, 66, 96)            0         \n_________________________________________________________________\nconv1d_4 (Conv1D)            (None, 66, 128)           36992     \n_________________________________________________________________\ndropout_4 (Dropout)          (None, 66, 128)           0         \n_________________________________________________________________\nconv1d_5 (Conv1D)            (None, 66, 196)           125636    \n_________________________________________________________________\ndropout_5 (Dropout)          (None, 66, 196)           0         \n_________________________________________________________________\nconv1d_6 (Conv1D)            (None, 66, 128)           75392     \n_________________________________________________________________\ndropout_6 (Dropout)          (None, 66, 128)           0         \n_________________________________________________________________\nconv1d_7 (Conv1D)            (None, 66, 96)            61536     \n_________________________________________________________________\nmax_pooling1d_2 (MaxPooling1 (None, 22, 96)            0         \n_________________________________________________________________\ndropout_7 (Dropout)          (None, 22, 96)            0         \n_________________________________________________________________\nconv1d_8 (Conv1D)            (None, 22, 128)           36992     \n_________________________________________________________________\ndropout_8 (Dropout)          (None, 22, 128)           0         \n_________________________________________________________________\nconv1d_9 (Conv1D)            (None, 22, 196)           125636    \n_________________________________________________________________\ndropout_9 (Dropout)          (None, 22, 196)           0         \n_________________________________________________________________\nconv1d_10 (Conv1D)           (None, 22, 128)           175744    \n_________________________________________________________________\ndropout_10 (Dropout)         (None, 22, 128)           0         \n_________________________________________________________________\nconv1d_11 (Conv1D)           (None, 22, 96)            36960     \n_________________________________________________________________\nmax_pooling1d_3 (MaxPooling1 (None, 7, 96)             0         \n_________________________________________________________________\ndropout_11 (Dropout)         (None, 7, 96)             0         \n_________________________________________________________________\nflatten_1 (Flatten)          (None, 672)               0         \n_________________________________________________________________\ndense_1 (Dense)              (None, 2)                 1346      \n=================================================================\nTotal params: 1,053,070\nTrainable params: 1,053,070\nNon-trainable params: 0\n_________________________________________________________________\n", "epoch": 100, "train_batch_size": 7000, "test_batch_size": 7000, "sequence_length": 200}, "test_result": {"test_time": 1.042970895767212, "report": "              precision    
…
