{"data": {"samples_train": 364199, "samples_test": 51510, "samples_val": 104576, "samples_overall": 520285, "name": "small_dataset"}, "embedding": {"vocabulary_size": 97, "embedding_dimension": 50}, "hiperparameter": {"architecture": "ann", "model_summary": "_________________________________________________________________\nLayer (type)                 Output Shape              Param #   \n=================================================================\nembedding_1 (Embedding)      (None, 200, 50)           4900      \n_________________________________________________________________\ndense_1 (Dense)              (None, 200, 128)          6528      \n_________________________________________________________________\ndense_2 (Dense)              (None, 200, 128)          16512     \n_________________________________________________________________\ndense_3 (Dense)              (None, 200, 128)          16512     \n_________________________________________________________________\ndense_4 (Dense)              (None, 200, 128)          16512     \n_________________________________________________________________\ndense_5 (Dense)              (None, 200, 128)          16512     \n_________________________________________________________________\ndense_6 (Dense)              (None, 200, 128)          16512     \n_________________________________________________________________\ndense_7 (Dense)              (None, 200, 128)          16512     \n_________________________________________________________________\nflatten_1 (Flatten)          (None, 25600)             0         \n_________________________________________________________________\ndense_8 (Dense)              (None, 2)                 51202     \n=================================================================\nTotal params: 161,702\nTrainable params: 161,702\nNon-trainable params: 0\n_________________________________________________________________\n", "epoch": 20, "train_batch_size": 7000, "test_batch_size": 7000, "sequence_length": 200}, "test_result": {"test_time": 0.49358654022216797, "report": "              precision    reca
…
