{"data": {"samples_train": 3641986, "samples_test": 515080, "samples_val": 1045775, "samples_overall": 5202841, "name": "small_dataset"}, "embedding": {"vocabulary_size": 97, "embedding_dimension": 50}, "hiperparameter": {"architecture": "cnn", "model_summary": "_________________________________________________________________\nLayer (type)                 Output Shape              Param #   \n=================================================================\nembedding_1 (Embedding)      (None, 200, 50)           4900      \n_________________________________________________________________\nconv1d_1 (Conv1D)            (None, 198, 128)          19328     \n_________________________________________________________________\nmax_pooling1d_1 (MaxPooling1 (None, 66, 128)           0         \n_________________________________________________________________\ndropout_1 (Dropout)          (None, 66, 128)           0         \n_________________________________________________________________\nconv1d_2 (Conv1D)            (None, 66, 128)           114816    \n_________________________________________________________________\ndropout_2 (Dropout)          (None, 66, 128)           0         \n_________________________________________________________________\nconv1d_3 (Conv1D)            (None, 66, 128)           82048     \n_________________________________________________________________\ndropout_3 (Dropout)          (None, 66, 128)           0         \n_________________________________________________________________\nconv1d_4 (Conv1D)            (None, 66, 128)           49280     \n_________________________________________________________________\nmax_pooling1d_2 (MaxPooling1 (None, 22, 128)           0         \n_________________________________________________________________\ndropout_4 (Dropout)          (None, 22, 128)           0         \n_________________________________________________________________\nconv1d_5 (Conv1D)            (None, 22, 128)           82048     \n_________________________________________________________________\ndropout_5 (Dropout)          (None, 22, 128)           0         \n_________________________________________________________________\nconv1d_6 (Conv1D)            (None, 22, 128)           49280     \n_________________________________________________________________\nmax_pooling1d_3 (MaxPooling1 (None, 7, 128)            0         \n_________________________________________________________________\ndropout_6 (Dropout)          (None, 7, 128)            0         \n_________________________________________________________________\nconv1d_7 (Conv1D)            (None, 7, 128)            49280     \n_________________________________________________________________\nmax_pooling1d_4 (MaxPooling1 (None, 2, 128)            0         \n_________________________________________________________________\ndropout_7 (Dropout)          (None, 2, 128)            0         \n_________________________________________________________________\nflatten_1 (Flatten)          (None, 256)               0         \n_________________________________________________________________\ndense_1 (Dense)              (None, 2)                 514       \n=================================================================\nTotal params: 451,494\nTrainable params: 451,494\nNon-trainable params: 0\n_________________________________________________________________\n", "epoch": 100, "train_batch_size": 7000, "test_batch_size": 7000, "sequence_length": 200}, "test_result": {"test_time": 3.968629837036133, "report": "              precision    rec
…
